app/src/main/ml/CIFAR.tflite (tflite, 494192 bytes, 10 tensors)

sequential/conv2d/BiasAdd/ReadVariableOp f4 [32]
00000000: 1bc0 883e 206c cd3d f2b5 b339 1b68 1f3e
00000010: 2fa5 7dbd 4768 093d f325 61bc b081 b3bd
00000020: 78c8 63be 4c5a 993c b6fc adbc d67b 363d
00000030: 9ad4 fcba f26b 5c3c 1b81 df3c afac ab3c
00000040: 2195 8abb 835e f73c 0dec 903c 0780 abbd
00000050: 3706 0839 3b20 a0bd e18a f33b cad1 46be
00000060: 0238 50bd 5505 f23b 47b9 ff3c 0800 fabd
00000070: af02 1dbb 2e0b 90be 1057 2c3c 75f4 8ebc
0.26709065 0.10030389 0.000342771 0.15567057 -0.06192511 0.033546712 -0.013741958 -0.0876497
-0.22244442 0.018719815 -0.021238666 0.044551693 -0.0019289434 0.013453471 0.027283242 0.020956365
-0.0042292033 0.030196434 0.017690683 -0.08374029 0.00012972286 -0.078186475 0.007432327 -0.19415966
-0.050834663 0.0073858895 0.031216277 -0.12207037 -0.0023957898 -0.2813353 0.010518804 -0.01745055

sequential/conv2d_1/BiasAdd/ReadVariableOp f4 [64]
00000000: 12e9 16be b005 c93d edc5 073e 4c95 d03d
00000010: 992d 1bbd 7782 953d e441 973e 38fe a4bd
00000020: d5b0 27be 24d9 85bd 23e6 7ebd 2778 54bc
00000030: af7d 273c 0d1d 0d3e d090 1ebd a9d9 423c
00000040: bde2 91bd 29c7 4ebd 478f d1bc 80b8 f4bc
00000050: ecf5 fbbc 52cd a73e d163 273e a29d 893d
00000060: 0eb6 0f3e ddbb dc3c ef0f b13c 522e 93ba
00000070: 3efd 3f3d a0b1 473d be6b 18bc 531b 083b
00000080: 54d5 a53d 5841 e3bd ce61 b03d a06b edbc
00000090: c60e 5c3c 404f 043e e144 273b b90c 58bd
000000a0: 7f45 8cbd 37c0 24bd 7fcd 71bd baed 293c
000000b0: 4b73 91be 6b31 be3d ba11 08be f1e7 b93d
000000c0: 9baa 8cbd 8dec 9d3d 9560 f03c 84ed 60bd
000000d0: 4186 fbbc 5d09 c93c 7e7d ca3d b094 4abd
000000e0: e192 8e3d 7ee6 72bd ccdf 013d 251f d93d
000000f0: a92b 763e ec03 b43d 5808 49bd 9021 a33d
-0.14737347 0.09815538 0.13259096 0.10184726 -0.037885282 0.07300275 0.29542458 -0.08056301
-0.1637605 -0.06535557 -0.062231194 -0.0129681 0.010222836 0.13780613 -0.038712323 0.011892715
-0.07123325 -0.050482903 -0.025581015 -0.029873133 -0.030756913 0.32773834 0.1634667 0.06719519
0.14034292 0.026945049 0.021614043 -0.0011229014 0.04687237 0.04875338 -0.0093030315 0.002076824
0.0809733 -0.11096448 0.08612405 -0.028981984 0.013431257 0.12920856 0.0025523233 -0.05274651
-0.06849193 -0.040222373 -0.059033867 0.01037162 -0.28408274 0.092867695 -0.13288012 0.090774424
-0.06868478 0.07711134 0.029342929 -0.054914013 -0.030703666 0.024540598 0.09887217 -0.049458206
0.06961609 -0.059301846 0.03170757 0.106016435 0.24040093 0.087898105 -0.049080223 0.07965386

sequential/conv2d_2/BiasAdd/ReadVariableOp f4 [64]
00000000: 8394 243e 0786 12bd 32dd debc 50ce de3c
00000010: 98f2 00bd e7bc 54bd bc97 d5bd d0f1 93bc
00000020: cb90 20bd dcdd 9e3c 7e60 af3e 3171 0fbc
00000030: 293c 4abd bd24 933d 5344 fbbd a321 02be
00000040: 3b64 3b3c 01fb 43bd f9ee 5dbd 217c b3bb
00000050: 5066 673e 96a1 863e 716f 3bbd a4ca 653d
00000060: 9794 aebd f194 5e3e d99c 41bd 5185 68bd
00000070: 2b33 87ba 0334 a23e 8c8a 0c3d 7a7a 6ebd
00000080: 3108 3e3c 2ec1 8abc 515d 82bd dd9c f1bc
00000090: a876 313d 0521 53bd 1f0f 663e e7aa f3bb
000000a0: b9b3 543e f7dc 033d 4436 183e 33a1 8c3e
000000b0: 1d2a 1abd 3511 75bd a856 053e 4e63 da3b
000000c0: 2a44 f83d 5bb5 ff3d fa5a 4dbd 95b5 55bd
000000d0: ffaa 7ebd f571 3cbc b865 ac3c 01b0 0abd
000000e0: c817 c2bc b869 843d 7f5a 3b3c e805 ca3d
000000f0: 2907 54bd d923 26bd 7886 1e3d 028d 35bd
0.16072278 -0.03577235 -0.027205084 0.027197987 -0.031481355 -0.051937964 -0.10429332 -0.018059641
-0.039200585 0.0193929 0.34253305 -0.008755014 -0.04937378 0.07184742 -0.12268891 -0.12708144
0.011437471 -0.047846798 -0.05418298 -0.005477444 0.22597623 0.26295155 -0.045760576 0.056101456
-0.08524435 0.21736504 -0.047268722 -0.056767765 -0.0010314932 0.31680307 0.034311816 -0.05822227
0.011598633 -0.016937818 -0.06365455 -0.029493744 0.04332605 -0.05154516 0.22466706 -0.0074361446
0.20771684 0.03219315 0.1486445 0.27466735 -0.03763782 -0.059830863 0.13021338 0.00666467
0.12122376 0.12485763 -0.05013559 -0.052175123 -0.062174793 -0.011501779 0.021044597 -0.033859257
-0.02369298 0.06465477 0.01143515 0.09864408 -0.05176464 -0.04056153 0.03870246 -0.04432393

sequential/conv2d/Conv2D f4 [32, 3, 3, 3]
00000000: 0a94 06bc b592 65bd 6eac d23d bb32 f3bd
00000010: 6b0c 1bbd 7705 05bd c2f9 7abd 88d0 2bbc
00000020: eb11 243e 9488 81bd 1fe8 19be 2491 fcbd
00000030: ef5b 34be a753 2bbe 8552 ae3d f39f 33bd
00000040: d3b5 b13d 6da8 543b 5695 49bc 97d1 1bbe
00000050: 6d1d 493c 74ea 26be 062e 0dbe 064d 093d
00000060: bf50 1a3d 1084 e5bd d470 8d3d d895 163e
00000070: 31bb 1c3e a21f f6bd db08 0ebd 4406 003b
00000080: 4306 07be a95c c73a 6ca0 0fbe 64b1 36bc
00000090: f725 f33d ee68 b23d bad2 e3bd f1dd c33d
000000a0: 4e7a 0f3e dad5 e3bd c9bd 4ebe 8e5f 46be
000000b0: 6e1b 63be 8379 68bc b285 1bbe 1d5f 09be
000000c0: d7da 19be 1100 183e ff7f 5d3a 36cc 663d
000000d0: 1d09 f43c c26c 0c3e 9fb9 143e 378c 2a3e
000000e0: 698c f23d 844f 383e b2ee 863e 8c67 503e
000000f0: 6a08 c93d cc64 dabc c4e6 d33d e646 87bd
00000100: 1c20 a13d 9300 913c c288 a4bd 1c3c e23b
00000110: c37d 94bd 2e52 29be d100 2dbe 81aa 9b3d
00000120: cb03 09be 652d aa3b 3915 f5bd cebb cabd
00000130: 7462 30be e675 3fbe b772 cbbd d88d 3dbd
00000140: 5321 a2bd 3f3c 533e e7f8 9b3e d594 763e
00000150: 389d 143e 0bcf 16bd 1593 d03c daf6 bcbb
00000160: d124 2bbe 5ba0 10be ea5a 9dbd 31c0 4fbe
00000170: 673f a9bd 2300 78be 83f6 dfbe a181 7dbd
00000180: b573 94be e56c 70be 345e 47be a671 b0be
00000190: 7785 dabe e742 ddbd 71c2 56be 06e8 7abe
000001a0: 1684 40be 64a4 dcbd 7036 c13d f600 d1bd
000001b0: d1c8 fcbd 92b4 43be 414c fcbd a3a6 75be
000001c0: 1878 74be 8ce9 98bd 84e4 3f3e 2cfc aa3d
000001d0: eecc 243e e37b 08bd ea52 95bd 325f abbd
000001e0: dac0 1c3e 3c10 473e b449 d83d 384e 2d3e
000001f0: 4505 743d 9797 143e 5195 0a3d 1bbd 84bd
00000200: c28d d93c 7c03 2f3e 033e a0bd 293c 343d
00000210: 1de9 823d cb5a 7dbe 8259 59bc f918 ea3d
00000220: d81a a13e fe38 09be d8e9 11be ad4d b13c
00000230: ef56 1ebe 0cbc 10be c66b 3d3e fdaf 2abe
00000240: 5e4e cebd b225 4a3e ba75 38be 6a5b 33be
00000250: 0cea 74bd 71ec d5bd 731b 31be 0df0 383e
00000260: 5f76 663e c632 6f3a ce3c a33b 091d 82be
00000270: 1758 083e e610 903d 249a 15bd 2c3d 0cbe
00000280: bdb7 0d3e 656c a93d 5d9b 503e b46e 543e
00000290: ca48 823e c67f eebd c587 303e 55e5 023c
000002a0: 3276 0ebd 3766 f739 c983 493e 4824 21be
000002b0: 9884 d43c db51 073d 55ea a3be 1f42 69be
000002c0: 28df a23d ec0c 91be bdc6 5fbd b322 bfbd
000002d0: 17f0 ad3d 7b9d d43d 646f b43d bc2e 04be
000002e0: 3562 31be be1d 84bb df8d 04be 0021 2c3d
000002f0: b81a d1bd 20d5 ae3d f4ab eabd 99be 033c
00000300: e614 8abd 6131 a2bd fb57 44bd acbe 16be
00000310: 6d48 8dbd 58bb 253e 5c7b 873d 7d19 1ebe
00000320: 3efc 20be fe45 3cbe 8d98 95bd 7fab 6fbe
00000330: 04e0 ac3d 6430 8c3d 892e 083e ad54 5f3c
00000340: f6ee 49be b8b1 8fbe 6041 4e3e 6ccc bbbd
00000350: c879 d9bd 392e 403e 2901 293e 4fa0 b63e
00000360: 678f 2dbe 868d 0a3e ca31 b23d 465f b73d
00000370: 19aa 5d3c 751f de3d 5056 ec3b a506 383d
00000380: 45e1 d83d debe 843d 5639 bf3c 2b6f e13d
00000390: d11b bb3d d727 353d 5cd4 0cbe f7f8 76bd
000003a0: f1a1 5c3d 2caf 02be ae3a 023e 380a 073e
000003b0: 9017 ddbd 70e8 2f3c c537 14be ab64 f8bc
000003c0: 6df1 41be d8df 18be 1adb 50be ef17 703d
000003d0: 8484 173d 77e7 e23d ddfc 6fbd 722b ccbd
000003e0: 07a4 27be 7536 4fbd c1ad 03bd bab3 18be
000003f0: 03eb 063e 30bc 803e f62e 833e 852f 99bd
-0.008214006 -0.056048114 0.102867946 -0.118749104 -0.03785364 -0.032475915 -0.061273344 -0.010486729
0.1602246 -0.06324878 -0.15029953 -0.12332371 -0.17613195 -0.1673113 0.08511833 -0.04385371
0.08677258 0.0032449022 -0.012303671 -0.15216671 0.012275082 -0.16300374 -0.13787088 0.03352072
0.03767466 -0.112068295 0.06906286 0.14705598 0.15305783 -0.12017752 -0.034676414 0.0019534985
-0.13185982 0.001521011 -0.1402604 -0.011150692 0.118724756 0.0871142 -0.11124177 0.09563816
0.140115 -0.11124773 -0.20189585 -0.19372389 -0.22178432 -0.014189127 -0.1518772 -0.13415189
-0.15024887 0.14843775 0.0008449554 0.056347094 0.029789502 0.13713363 0.14523934 0.1665505
0.11843187 0.17999083 0.26353985 0.20352 0.09816058 -0.026659392 0.103467494 -0.0660532
0.078674525 0.01770047 -0.08033897 0.0069041383 -0.0725055 -0.16535255 -0.16894843 0.076008804
-0.13380353 0.0051933997 -0.119669385 -0.09899102 -0.17225057 -0.18697318 -0.099339895 -0.04627785
-0.07916512 0.20628451 0.30463335 0.24080212 0.14513099 -0.036818545 0.02546076 -0.0057667317
-0.16713263 -0.14123671 -0.07683356 -0.20288159 -0.08264046 -0.24218802 -0.4374276 -0.061891202
-0.28994527 -0.2347904 -0.1946953 -0.34461707 -0.4267995 -0.10803776 -0.20972611 -0.24502572
-0.18800387 -0.107735425 0.09434211 -0.102052614 -0.1234299 -0.19111851 -0.12319232 -0.23989348
-0.23873937 -0.074664205 0.18739516 0.08348879 0.160938 -0.033321273 -0.07291205 -0.083677664
0.15307942 0.19439787 0.10560933 0.1692437 0.059575338 0.14510952 0.033833805 -0.064813815
0.026556853 0.17091173 -0.07824328 0.044002686 0.06392119 -0.24741666 -0.013265969 0.114305444
0.31465793 -0.13400647 -0.1424936 0.021643484 -0.1546285 -0.14134234 0.18498144 -0.16668697
-0.10073541 0.19740942 -0.18013659 -0.1751534 -0.059793517 -0.10445488 -0.17295627 0.18060322
0.22506092 0.00091246923 0.0049816137 -0.25412777 0.13314854 0.07034473 -0.036523953 -0.1369521
0.13839622 0.08272628 0.20371766 0.20745355 0.2544616 -0.116454646 0.17239292 0.007989247
-0.03478069 0.00047187667 0.19679178 -0.15736496 0.025942132 0.033037048 -0.3201472 -0.2277913
0.0795272 -0.2833017 -0.05463289 -0.0933279 0.08493059 0.103815995 0.088103086 -0.12908453
-0.1732262 -0.004031866 -0.12944745 0.04202366 -0.10210174 0.08536744 -0.11458579 0.0080410475
-0.06742267 -0.079195745 -0.047935467 -0.14721173 -0.0689858 0.16184747 0.06615326 -0.1543941
-0.15721223 -0.18386075 -0.073044874 -0.23405264 0.08441165 0.06845167 0.13299002 0.013631028
-0.19720063 -0.28065276 0.20142126 -0.0916985 -0.10618931 0.18767633 0.16504349 0.3566918
-0.16949235 0.1353055 0.08700903 0.08953719 0.013529324 0.10845844 0.0072124377 0.04492821
0.10589842 0.064817175 0.02334277 0.11007532 0.09136165 0.044227447 -0.13752884 -0.060296025
0.053865377 -0.12762135 0.12717697 0.13187492 -0.1079551 0.01073657 -0.144744 -0.03032144
-0.18939753 -0.1492914 -0.2039608 0.058616575 0.03699161 0.11079305 -0.05859076 -0.09969224
-0.16371165 -0.050589044 -0.032148127 -0.1491231 0.13175587 0.25143576 0.25621766 -0.07479767

sequential/conv2d_1/Conv2D f4 [64, 3, 3, 32]
00000000: 92fe 863d e5b4 35bd 5ac4 81bd 9aa2 e4bd
00000010: c7f8 323c dfe2 823d 5d8a 94bd 46a4 6dbe
00000020: aab0 28bd b071 09be 98f2 d03c 35db 94be
00000030: 0beb 4e3c abef 873d 5ea2 92bb 1ca4 fa3d
00000040: c5d5 e1bd 325a c53c 6052 dd3b cc11 4dbe
00000050: be01 94bd 377d b53d c1d4 b1bd 28fc 1b3e
00000060: 82f3 073c c780 c43b 7197 95bd f2dc 4abe
00000070: 2ab0 34be 9e08 993d 7262 07bc 7fe5 cebb
00000080: c8d6 143e dc6c 3ebd c0b9 1dbe 0cad 873e
00000090: 0713 873d 105b 103e ccb4 2ebe cc4a cdbc
000000a0: 9f30 39bd 95b8 19bd 8ef5 23bd 56a3 11bd
000000b0: d141 d73d 538b 843d f0fd e03d 13e5 133e
000000c0: e939 963d 7ef6 0eba d81b a63e 4323 d63d
000000d0: d27e 10bb 1073 113e 8bce 00be 5f7e 47bc
000000e0: fba3 8abd 6ab7 6ebd b2ca f43c 16cd 873c
000000f0: 0542 9a3d 4304 16be 6a6a b73d e19e c2bd
00000100: e51a 9a3e e07b 94bd 7b90 493d e535 3a3b
00000110: 4e08 82bd 16ef da3c f823 0d3e 88bb 3e3e
00000120: a74b e03d 492b b7bd 0cc9 88bd e16c 3dbd
00000130: 232c a3bd 482d 903d 42ba f7bc 6360 043d
00000140: 9915 503b 7227 113e 7e92 893e 0788 923b
00000150: 0c2e 2bbe 8281 1cbd 6f82 30ba b75c b53b
00000160: c4a7 db3b 27aa 743d caff b33d 64f7 93bc
00000170: 7eea b5bc 3621 b6bd de4c 1a3c f9f8 d2bd
00000180: f2c0 01bd 9393 45bd 6725 a6bd 54ab 66be
00000190: 542c 38bd 6dab 503d 32ef 49be 7f75 08be
000001a0: b488 463d c379 b43d dc63 583d 41d8 37be
000001b0: aaad 3dbe bb65 233d 442d 083e 84db 5c3c
000001c0: f1f2 003d 0bf6 5e3d ad4e 5e3e a57b 08bc
000001d0: 3fd7 01bd be5f 233e 1a43 30be 5f9c 09bd
000001e0: 8e02 b13c aecb 45be 01a8 d1bd 11bf 00be
000001f0: 4db9 05bc 7b68 ee3d 67db 013e 577a 203e
00000200: 2b5f e0bc 05a5 2b3e 06d9 0cbe 23e9 ab3c
00000210: d2fe fbbd d33a 153e d777 febe 515b 8f3d
00000220: 1f72 6f3d d8a5 e2bb c65b d93c 239f aa3e
00000230: 8296 0bbe 0321 c1be 9e90 da3d 8041 0ebe
00000240: c6f8 4c3e 8b34 df3d fcb3 c63e f188 5b3e
00000250: 1c08 513d 35d9 923d 321a 87be 7d6f ddbd
00000260: 3f17 983d d957 38be db08 27be 91bb 413e
00000270: 8c90 44bd 1482 4abe 4ca4 193e 5095 c93d
00000280: 399b 13bd 9319 333e 2804 c83d 2100 86bd
00000290: 50ff cabc 3e97 3e3e 7cf3 a2be 4554 693e
000002a0: ee1c 233e 678b debd 0978 e13b fbc5 ae3e
000002b0: 58b6 fabd 573a 37be 351d a4bd 8487 4bbe
000002c0: 49aa 003e 1d7b c03d acc7 b23e 5387 e13d
000002d0: 9996 93bc ce9e 25bd f2a3 3dbe ab63 333d
000002e0: 7729 a1bd 675b 023e 9db2 533c b1d9 153d
000002f0: 0bad 80bd 5c8a 67be 35ab 7a3d ab0c 873a
00000300: 5027 b3be 8b0f d5bc e58f b2bd abc7 99be
00000310: 24f9 40be 664d 643b f947 b8bd 676d 7abe
00000320: 7e94 23bc 0cc2 c03d e99c 953d eb31 0dbe
00000330: 0776 6abd 7edf 503e c494 1c3e ff75 8a3d
00000340: 04ee 3cbe 8ab1 8b3d 4df8 f83c b948 d9bd
00000350: de48 903d 94fd 70bc 6ec0 d93d 1744 43bd
00000360: 8aef 9c3d 6b6c 4bbe eed5 02be b6c5 e3bd
00000370: 3eaa 553d fc4f 883c a50b 6f3e 3757 4ebb
00000380: bc1f e1be 8659 b93d 61ff 62bd 5f5d b2be
00000390: 7465 39be 4e1c 843d 95d2 b8be e9a4 2c3d
000003a0: 0fe8 4dbb ede2 2ebd faae 4f3c 03f3 863e
000003b0: 1e45 11bd a612 583c caee 3b3e e98b 43be
000003c0: 97dd 793c 3c9e e53d 1ea2 883e 96d2 a13d
000003d0: 8c9a 92bd 5bf0 08be 604e afbd a47d c8bd
000003e0: 2191 14bd ae16 16bc 3477 bcbd 6e5e 993c
000003f0: dbf1 9abd 68bd 22bd 16f4 463e 87f3 e53b
0.06591524 -0.044361968 -0.06336279 -0.11163826 0.010923571 0.063909285 -0.07252953 -0.23207197
-0.041184105 -0.13422275 0.025506303 -0.29073492 0.012629281 0.0663751 -0.004474922 0.12238333
-0.110271014 0.02409086 0.0067542046 -0.2002632 -0.07226895 0.088617735 -0.08683158 0.15232909
0.008297803 0.005996797 -0.07304276 -0.19810846 -0.17645326 0.07472347 -0.008263217 -0.006313979
0.14535058 -0.046490535 -0.15402889 0.26499212 0.06595426 0.14097238 -0.17061156 -0.02506008
-0.045212384 -0.037529547 -0.0400291 -0.03555616 0.105106 0.064718865 0.10985935 0.14442854
0.07335264 -0.00054536003 0.32443118 0.104559444 -0.0022048247 0.14204049 -0.1257879 -0.012176125
-0.06769558 -0.058280386 0.029881809 0.016577285 0.075321235 -0.14650063 0.08955844 -0.0950296
0.30098644 -0.0725019 0.049210053 0.0028413471 -0.0634924 0.026725333 0.13783252 0.18626225
0.109519295 -0.08943803 -0.06678972 -0.046246413 -0.07967403 0.07039887 -0.030240182 0.032318484
0.0031751154 0.14175203 0.26869577 0.004471782 -0.16716784 -0.038209446 -0.00067333033 0.005534734
0.006703349 0.059732582 0.08789022 -0.018062301 -0.022206541 -0.08893053 0.009417741 -0.10301394
-0.031678148 -0.04823644 -0.08112603 -0.22526294 -0.04496415 0.050944734 -0.19720152 -0.13326071
0.048470214 0.08812287 0.05282961 -0.17953588 -0.18523279 0.03989194 0.13298517 0.013480071
0.031481687 0.054433864 0.217097 -0.00833026 -0.031699415 0.15954491 -0.17213097 -0.033596393
0.021607663 -0.19315979 -0.10237122 -0.12572886 -0.008161855 0.11641022 0.12681352 0.15671669
-0.02738913 0.16762169 -0.13754663 0.020985192 -0.123044625 0.14573221 -0.49700806 0.06999839
0.058458444 -0.006916743 0.026533019 0.33324537 -0.13631633 -0.37720498 0.10672115 -0.13892174
0.20016775 0.10898694 0.38809192 0.21438958 0.051033124 0.07170335 -0.26387173 -0.1081228
0.07426309 -0.18002261 -0.16311972 0.18919207 -0.047989413 -0.19776183 0.1500408 0.09842932
-0.036036704 0.17490225 0.09766418 -0.06542993 -0.024779946 0.18612382 -0.3182639 0.22786053
0.15929005 -0.10866433 0.0068807644 0.34135422 -0.122418106 -0.17893349 -0.08013383 -0.19875914
0.12564959 0.09398482 0.34917963 0.11012139 -0.018016146 -0.04043465 -0.18519571 0.043796223
-0.07869237 0.1273018 0.012921003 0.03658456 -0.06283005 -0.22611374 0.061198432 0.0010303458
-0.3499093 -0.026008388 -0.08718852 -0.30035147 -0.1884504 0.0034836172 -0.08998103 -0.24455796
-0.009984134 0.094120115 0.07305319 -0.13788573 -0.057241466 0.20397756 0.15291125 0.06760787
-0.18450171 0.06820972 0.030391837 -0.10609574 0.07045148 -0.014708895 0.10632406 -0.047672357
0.07662876 -0.19865577 -0.1277692 -0.11121695 0.05216431 0.016639702 0.23344286 -0.003148509
-0.43969524 0.09050278 -0.05541933 -0.34836861 -0.18105108 0.06450711 -0.3609816 0.042149458
-0.0031418835 -0.042696882 0.012675995 0.26357278 -0.035466306 0.01318804 0.1835281 -0.1909634
0.015250585 0.112118214 0.26686186 0.07901494 -0.07158384 -0.13372938 -0.08559871 -0.09789589
-0.03627122 -0.009160681 -0.09202424 0.018721785 -0.075656615 -0.039731413 0.19429049 0.007017556

sequential/conv2d_2/Conv2D f4 [64, 3, 3, 64]
00000000: fcdc cebc 7dfc 79bd 0de7 02be 0e74 5cbe
00000010: b646 7ebd 0907 c93b fb38 63bc 5e5c f13c
00000020: 514d 05bd 7ae5 63bd e268 a3bd 4642 143e
00000030: f17f 0b3e fdb2 fd3d ad3b 42bb 79b4 bc3d
00000040: 0e74 8a3b 5062 15bd 683c 663b b2b3 25bd
00000050: a9a0 a03c 4dc9 31be d3a3 f03d 6a17 ed3d
00000060: eb3a 9cbd d4c9 e0bd 74c7 cf3d f77e 3b3d
00000070: d126 293e ac42 69be cddc 06be d056 b0be
00000080: ebed 60be e4d2 07be 5d5a 2f3d 8f3b e8bd
00000090: 53c8 29be 92a3 883d 7abe 15be d34f fd3d
000000a0: b803 41bd 6920 323d 95ea c7be be35 d5bd
000000b0: fb71 d9bd d237 4a3c 5eb2 8cbe 8592 c2bd
000000c0: bbac 773d c28c a7bd eadd 023e 98e7 043d
000000d0: 5b2c 89bb 8d0a 55be 5c29 9f3d 1b44 f8bd
000000e0: ec68 e7bd 5401 fb3a c9bf d33d 579f c3be
000000f0: 9c37 5cbe 1081 d0bd 4364 833d 6ee6 3cbe
00000100: 27ba 023d a528 673c d86d 8dbe 1502 4ebe
00000110: e2b9 43bc 6526 1c3d a9b6 353e 73f6 abbd
00000120: be8c 563e f8cb 1f3c 4637 01be 0ea2 df3c
00000130: 67d4 94bc e0c6 243d 74cb e33b 755f 9c3e
00000140: 62ca 0ebb f0a0 f3bb 3e9c f23d e9c8 0abe
00000150: ed0e 9aba ecbf 323d a593 ef3d e6f2 103e
00000160: 37a3 72bd 2f0c adbd 6725 333d 6e7d 223e
00000170: 7774 43bd 5426 99bd 0479 4cbd 5cda 53be
00000180: 6bb0 a2be dc14 093e 438e 233e da93 b8bd
00000190: 6ecf be3d d364 a83c 86b4 15be 72a6 afbb
000001a0: e724 413d c5b4 653d 3d0c b7be 7c2d 9bbe
000001b0: de1e d0be efb7 043d 86de 9ebe 707b 823d
000001c0: 4eb6 723d 326d ecbd 31ae 863e 93e1 41bd
000001d0: 2bd6 993c 1a64 36be 4cd7 693e 2bcf 0dbe
000001e0: 067e 01bd 6348 72bd e1c3 963c 931f 91be
000001f0: ad50 1bbe a1df 86bd 354c 593c 2112 093c
00000200: 4c4f 5abe 0dd4 143c 5b6e 8c3e c572 e0bc
00000210: 1f7a b73c 021d 7fbd 721d 543c 8345 1f3e
00000220: 727c 51be 175a 0dbd 2cc2 5f3d bdf0 6abe
00000230: 29fe 4dbe bf31 35be 806d 563b c8c6 29be
00000240: 301b c13c fbf4 2f3e 5cd0 883c fffe c63d
00000250: 857f 833c 2ec7 093e ad3a ca3d 2198 88be
00000260: 42b5 b4bc f9ab 873e 6320 853e 5351 ad3d
00000270: 69ae 2dbd ec8d 7fbe c30a 013e d9e1 22bd
00000280: 6b8f 88be 321e aa3d 103a bdbd 86cc 1b3d
00000290: 72ec 0ebe 7713 d03b 9f61 d8be 282a d8bd
000002a0: b008 373c f1ec 55bd 9492 2cbe c879 8abe
000002b0: b302 153e b07c f2bd e1ef 96be 86df d23d
000002c0: 7a50 5d3d a2e5 9ebd 0653 913d e31c 623c
000002d0: 0246 8b3d 2113 63be 3051 0d3e 215e b8be
000002e0: 4329 c3bd 1197 993d 53eb 193e 790a 53be
000002f0: aafd 89be 9e70 9bbe 8244 c2bc 98ee 9a3d
00000300: 7fc5 00bd 255c 993d 837c 3e3e 67b4 96be
00000310: 9cfb ebbd 1a16 aebd d968 d6bd 0bf5 6bbc
00000320: 6ca8 dc3d 5b79 d33d 267e 223d 4b5e be3b
00000330: da5f 1a3e 7f2a 24be 7ca7 7dbd 07cc cc3e
00000340: 00d2 c03b b516 abbd 4357 4f3c 0d0e ae3c
00000350: 7787 24bc afde 17be bd24 0abe c901 183e
00000360: 3ca5 cdbd c66c d2bd 8a5f 133e 2fbc ddbd
00000370: fbb1 e93c 1a66 733e 4f37 1fbd 0793 0cbe
00000380: dc69 b5bd 33a0 b23b 5f1e 99be 83b9 493e
00000390: 30ba 89bb e134 d33d 916d 623d 17c6 f1bd
000003a0: d58f b03c 257e d43c e98f 2f3e d2b0 47be
000003b0: b571 c93b a949 ca3d 1cda 80bd 3f2e cebd
000003c0: 7842 d93c 2362 eabd 9597 8dbd b4c9 563a
000003d0: 248a 42bd 735f bdbc 927a aa3c 91d9 09bd
000003e0: e1ae 68bd 7839 6f3d 4f93 8f3c 00bb b33d
000003f0: ec12 23bd 5940 a4be ca45 75bc 3e29 b3be
-0.025251858 -0.061031807 -0.12783451 -0.21528646 -0.062079154 0.006134872 -0.013868566 0.02946299
-0.032544438 -0.055638768 -0.07978989 0.14478406 0.13623025 0.12387655 -0.002963762 0.0921411
0.0042252606 -0.03647071 0.003513122 -0.040454574 0.019607859 -0.17361946 0.11749997 0.115767315
-0.07628425 -0.10975996 0.101454645 0.04577538 0.16518714 -0.2277934 -0.13170166 -0.34441233
-0.21965759 -0.13264042 0.042810787 -0.11339485 -0.16580324 0.066718236 -0.14623442 0.12368741
-0.047122687 0.04348794 -0.3904616 -0.10410641 -0.10617443 0.01234241 -0.27479833 -0.09500603
0.060467463 -0.08181144 0.12779966 0.032447428 -0.004186196 -0.20804806 0.077715605 -0.12122365
-0.11299309 0.0019150176 0.103393145 -0.38207504 -0.21505588 -0.10180867 0.06415608 -0.18447277
0.03191581 0.0141088115 -0.27622867 -0.20117982 -0.011946173 0.038122553 0.1774546 -0.08396616
0.20952126 0.00975322 -0.12618741 0.027298953 -0.018167688 0.040228724 0.0069517437 0.30541578
-0.002178811 -0.0074349567 0.11846207 -0.13553204 -0.0011753716 0.043640062 0.11698083 0.14155158
-0.059237685 -0.084495895 0.04373684 0.1586816 -0.04771849 -0.07478014 -0.049920097 -0.20688766
-0.3177522 0.13386863 0.15972237 -0.090125754 0.09316908 0.02055589 -0.14619645 -0.005360418
0.047154333 0.0560806 -0.35751525 -0.3030814 -0.4064855 0.032401975 -0.31029147 0.063712
0.05925589 -0.11544265 0.26304772 -0.047334265 0.018778881 -0.17811623 0.22836035 -0.1384856
-0.031614326 -0.059151065 0.01840395 -0.28344402 -0.15167494 -0.065856226 0.013262798 0.008366139
-0.21319312 0.00908376 0.27427945 -0.027398476 0.022397099 -0.062283523 0.012946473 0.1555386
-0.20457628 -0.034509744 0.054628536 -0.22943397 -0.20116486 -0.17694758 0.0032719076 -0.16579735
0.023572534 0.17183296 0.016700916 0.097166054 0.016052017 0.13454887 0.09874473 -0.26678565
-0.022059087 0.26498392 0.26001272 0.08462777 -0.04240266 -0.24956483 0.12601762 -0.039766166
-0.2667192 0.083065405 -0.0923959 0.038036846 -0.13957384 0.0063499766 -0.4226198 -0.10554916
0.011171505 -0.052227918 -0.1685279 -0.27046037 0.14551811 -0.118401885 -0.29479888 0.1029654
0.054031827 -0.07758643 0.070959136 0.013800832 0.06800462 -0.22175266 0.13800502 -0.36009315
-0.095293544 0.07499517 0.15031175 -0.20609464 -0.26951343 -0.30359358 -0.023714308 0.075650394
-0.031438347 0.07488278 0.18602185 -0.2943451 -0.115226 -0.08500309 -0.10469217 -0.0144016845
0.107743114 0.10325881 0.039671086 0.0058095804 0.15075627 -0.16031836 -0.061927304 0.3999941
0.005884409 -0.083539404 0.012655082 0.021246934 -0.010042063 -0.14831041 -0.13490577 0.14844431
-0.100412816 -0.10274653 0.14391914 -0.10826909 0.02852725 0.23769417 -0.038871106 -0.13727961
-0.08858082 0.005451226 -0.29905984 0.19699673 -0.0042031035 0.1031282 0.055280272 -0.11805361
0.02155296 0.025939057 0.17144741 -0.19501045 0.006147588 0.09877331 -0.06291601 -0.100674145
0.026520953 -0.11444499 -0.069136776 0.0008193508 -0.047495022 -0.023116803 0.0208104 -0.033654753
-0.056807403 0.058404416 0.017526297 0.08775902 -0.039812967 -0.32080343 -0.014970252 -0.34992403

sequential/dense/BiasAdd/ReadVariableOp f4 [64]
00000000: b73f 08bd 6bc6 893e b469 48bd edad 45bc
00000010: 360b 3fbd 705e 51bc 0e94 aabc 602b 273e
00000020: 0231 41bd 1767 b3bb b908 68bd aadf df3d
00000030: 745a 0c3d 9752 cbbd 5356 5e3e 1e9c 98bd
00000040: 4b7c e3bc ccb3 45bd 215f 2e3e c987 5bbc
00000050: 2012 66bd cb3b 423d 7603 abbc a67f 2c3e
00000060: fe01 373d ea65 6c3c 52e2 12bd 7723 03bd
00000070: 7c35 19bd 2103 ed3d 32cb 15bc fe96 d8bb
00000080: 50bb 133e 1df7 a93d 965f a1bc 5cd2 64bc
00000090: 8d9e 7fbd e405 ec3d c3fa c7bd c4c0 43bd
000000a0: f001 a63d 40e3 0f3d aaf9 4cbd f519 203d
000000b0: 9792 623e d32e 4c3e 2797 f5bc 4f42 b9bc
000000c0: ded5 3a3e 82f4 f63d f000 f7bc 34d2 09bd
000000d0: 30c3 f23c 3657 15be 3b1e 06bd db0c 573e
000000e0: f79f b53d 8889 b6bb cbfd f03d 24ca 9dbc
000000f0: ff63 4cbd 2671 a1bc 54ee bfbc e816 8abc
-0.03326389 0.26909193 -0.04892893 -0.012065393 -0.04664155 -0.012778863 -0.020822551 0.1632514
-0.047165878 -0.0054749358 -0.056648944 0.109313324 0.03426595 -0.09927862 0.21712618 -0.07451652
-0.027769228 -0.04826717 0.17028476 -0.013399073 -0.05616963 0.047420304 -0.020875674 0.16845569
0.044679634 0.014428595 -0.035860367 -0.032016244 -0.037404522 0.115728624 -0.009142684 -0.0066097965
0.14426923 0.08299086 -0.0196989 -0.013966169 -0.062407065 0.11524561 -0.09764626 -0.047791258
0.08105838 0.035128832 -0.050042786 0.039087255 0.22126232 0.19939737 -0.029979302 -0.022614626
0.18245646 0.12058355 -0.030151814 -0.03364773 0.029634088 -0.1458405 -0.032743674 0.21000998
0.088684015 -0.005570594 0.11767157 -0.019261427 -0.04990005 -0.019707274 -0.023429073 -0.016856626

sequential/dense_1/BiasAdd/ReadVariableOp f4 [10]
00000000: b280 35be c678 03be c7b8 c3bd 91c7 413d
00000010: c78e 863e 4606 1f3c e887 863d b568 59bd
00000020: 7676 b13d 8a0c debc
-0.17724875 -0.1283904 -0.09556728 0.047309462 0.26280805 0.009706086 0.06568891 -0.053078372
0.08665173 -0.027105588

sequential/dense/MatMul f4 [64, 1024]
00000000: b724 bf3c b1c5 363d ac50 3abd b1c8 fb3d
00000010: 8f85 08bd 73bf 0d3e ffc8 453e c69e a7bc
00000020: 47c1 b33b 4cf8 63bc d7dd b6bd 5a69 963e
00000030: 74e2 c53c 6acb 373e b9ac 5c3d 3585 18be
00000040: ba76 88bb 9d84 cc3b 3e0d 56bd bf5c 133d
00000050: a018 4d3d 133f 6f3e eb52 c23d 07d5 13be
00000060: 0da1 b23e c2bc c73d 0fe7 363d d129 533d
00000070: 8196 5d3e b994 183e ce8e 07bd b509 353e
00000080: 35ae 063d 53a9 67bd 11ec 40bd 9320 d0bd
00000090: 0d9c ab3c 4d0e 9d3d d183 623e 8ca3 03bd
000000a0: 7750 cebc 2292 9bbd 07bf 1b3d 7712 2abe
000000b0: f7e8 b43c 433a 07bd f254 20be d9d1 873e
000000c0: e3a7 11be 7cef 59be 387b 813d a802 f43d
000000d0: 9a46 8c3c b8fb 7c3d 92ce 923e 4629 6cbd
000000e0: a9be 463d ce10 74be df1f d2bc 87cc e43c
000000f0: 0bbd 3a3d 27bf 633d b8a1 26bc a178 f4bd
00000100: 1f2a c33b 8e70 993c a922 c839 be28 263e
00000110: 9139 82bd beaf 5e3e 8776 82bd 0e37 2c3c
00000120: a3d2 0c3d dc66 a1be 8585 743d 7698 253e
00000130: 0193 2d3d 86bb 87bc 9005 ccbd 3568 273e
00000140: 6ab5 993d 0008 22be b91a 01bd 85fd 7f3d
00000150: d3d3 2d3e da32 b43d bdb7 233d 8917 f0bd
00000160: 8518 aabc 38ee dd3d 1f7a e03b 5fbd 213e
00000170: 47e1 90bd 738f 3dbe c74a d63d 827d da3d
00000180: a664 c6bd 73bb d93c 2921 a4bd 3d9a 913c
00000190: 822b 5abd 7a15 043e 1ee5 3a3e 6b24 fb3d
000001a0: f185 e7bc 2853 9fbd 7802 553c 5bcd f7bd
000001b0: a9d0 34be 4f9f 9a3e 0b4f e5bd 44c4 1f3e
000001c0: ea86 c2bc 5ca4 e8bd 47c4 0ebd 1698 7dbd
000001d0: 2804 e6bc 4165 6b3d 7cfe 443e 7185 2abd
000001e0: 00d0 12bd 8786 a5bd 190e b4bd 6f46 a0ba
000001f0: b72d 0a3d 8694 b93c bb5b 49be 6f96 3c3e
00000200: 8697 73bd 8c47 513d 61a5 723d e24e 3d3e
00000210: b756 09bc 821a 123e 6797 b3bc 12ff 15bd
00000220: 7756 643d 4a01 25be 7330 4ebe 3139 2d3e
00000230: 8e06 523d 5d35 d73d d1e7 09bd a315 6f3e
00000240: 54fd 54bd e239 c2bc 49ce 4f3d 73b5 a63c
00000250: 4c6a dbbc 1910 c13d a5f2 80bd af94 dbbc
00000260: ff16 66be 2df0 3d3e f78d 363d bcf7 193e
00000270: 4fc8 213e 04a6 b7be b367 2b3e 31d5 8e3d
00000280: eb05 463c 6520 dcba a721 c23d 559f f7bb
00000290: da9a 9bbd f5bf 4dbd 054b eb3d 4d64 c73d
000002a0: 018b f4bd 9d55 a83d 449e ac3d 3442 f53b
000002b0: c0e6 65be e491 653d b964 023e c2a3 0f3e
000002c0: ea12 a3bd 2096 d1bd 3d50 8e3c 8014 18be
000002d0: 19a8 ec3c ade9 0dbb 2e5a 553e b8e2 08bd
000002e0: 4dec 773d b607 19be 5b42 a3ba 4e8a b03d
000002f0: de7b f63c ae46 453d 5da4 ff3c 5efc 41bd
00000300: 9623 0ebe 249a 593d 28ba f8ba 37ea ef3d
00000310: 0e69 183d 5876 35bd 206b 81bc b787 bfbc
00000320: d122 f7bc 5c1f 2d3d b662 7cbc 96ba 193e
00000330: b91c d5bb 95ca 3fbd e6b6 94be c34f 0a3d
00000340: b459 c53d fca1 e8bd 56ab 833c 64c4 24bd
00000350: 6dfa 853e af0d 893e 4d7e 95bc 29b1 c9bd
00000360: 7fbe 46bc 8ae0 cd3c 84f6 80bd 1c64 033d
00000370: 571c 2c3e d53c 8fbe ed63 863e fd42 ce3d
00000380: 5029 2d3d 4178 3ebd 15db e43d 921d 99bc
00000390: 3f92 babd 7453 17bd 7daf 183d 63dd 2bbd
000003a0: c728 0abc ea10 8dbc a006 ee3c 515f 0d3d
000003b0: 249d c1bd da8f e03d 70e7 b73d 447c bbbd
000003c0: cf56 afbd 7292 abbd 8ec2 f23c 8143 d0bd
000003d0: 7d83 21bd 2be0 473d b48a e0bb 16f8 6dbd
000003e0: 38af 8dbd acec 913d f38d 3c3e 0988 353d
000003f0: 4eb4 d83d 5249 0bbd 8fae b93d b855 1cbe
0.023332937 0.044622127 -0.04548709 0.12294138 -0.033330496 0.13842563 0.19314955 -0.020461451
0.005485687 -0.013914179 -0.08929031 0.29377252 0.024155833 0.1794869 0.05387566 -0.14894564
-0.004164544 0.0062413947 -0.052258722 0.03597712 0.050072312 0.23363905 0.094884716 -0.14436732
0.34888497 0.097527996 0.04465395 0.05155355 0.21639444 0.14900483 -0.033095174 0.17679484
0.03288098 -0.056557965 -0.04710013 -0.10162463 0.020948434 0.07668743 0.22120596 -0.032138392
-0.025184853 -0.07596232 0.038023975 -0.16608606 0.022083743 -0.033014547 -0.15657404 0.2652729
-0.142242 -0.21282762 0.0632233 0.11914569 0.01712351 0.061763495 0.28673226 -0.05765655
0.04852167 -0.23834535 -0.025649963 0.027929557 0.04559044 0.05560222 -0.010170393 -0.11937071
0.005955949 0.018730428 0.00038172796 0.1622648 -0.06358636 0.21746728 -0.063702635 0.010511173
0.034380566 -0.31523788 0.059697647 0.1617144 0.042376522 -0.01656891 -0.099619985 0.16348346
0.07505305 -0.15823364 -0.031519625 0.062497634 0.16975336 0.08798762 0.03997015 -0.11723239
-0.020763645 0.10836452 0.0068504955 0.15794896 -0.07074218 -0.18511753 0.104634814 0.1066847
-0.09687166 0.02657864 -0.08014137 0.017773742 -0.05326415 0.12898818 0.18251464 0.122628056
-0.02826211 -0.07779533 0.013001077 -0.12099715 -0.17657723 0.30199668 -0.11196717 0.15602213
-0.023745973 -0.11359474 -0.034855153 -0.06191262 -0.028078154 0.05746961 0.19237703 -0.041631166
-0.035842896 -0.080823 -0.087917514 -0.0012228022 0.033735003 0.02265383 -0.19663899 0.18416761
-0.059470676 0.051093623 0.05923975 0.18487123 -0.008382491 0.14267924 -0.02192278 -0.036620207
0.05574652 -0.16113773 -0.2013567 0.16916348 0.051275782 0.10508225 -0.033668343 0.23348098
-0.051999405 -0.023709241 0.05073384 0.020350194 -0.026784085 0.094268985 -0.06296281 -0.026804296
-0.2246971 0.18548651 0.044568982 0.1503591 0.15799068 -0.35868847 0.16738777 0.06974257
0.012086372 -0.0016794322 0.09479075 -0.0075568357 -0.07597895 -0.050231893 0.11488918 0.09735928
-0.119405754 0.082194544 0.08428624 0.0074846987 -0.22451305 0.056047335 0.12733735 0.14027312
-0.07962592 -0.10233712 0.017372245 -0.1485157 0.028888749 -0.0021654174 0.20835182 -0.03341934
0.06052809 -0.14944348 -0.0012455689 0.086201295 0.030088361 0.04816311 0.031206304 -0.047359817
-0.13880762 0.053125516 -0.0018976377 0.11714595 0.037209563 -0.044302315 -0.015798151 -0.023380144
-0.030167969 0.042266235 -0.015404394 0.15012583 -0.006503668 -0.046824057 -0.2904579 0.033767473
0.0963625 -0.11359021 0.01607291 -0.040226355 0.26167622 0.26768252 -0.018248701 -0.09848244
-0.012130379 0.025131483 -0.06297019 0.032077894 0.16807686 -0.279761 0.26248112 0.10071371
0.042275727 -0.0465014 0.11174599 -0.018690858 -0.091099255 -0.03694482 0.037276734 -0.041959178
-0.008432574 -0.01721998 0.029055893 0.03451473 -0.094538 0.109649375 0.0897969 -0.09154561
-0.08561479 -0.083775416 0.029633787 -0.10169125 -0.039432038 0.048797768 -0.006852472 -0.05809792
-0.06918186 0.0712522 0.18413524 0.044319186 0.105812654 -0.03400547 0.090664975 -0.15267074

sequential/dense_1/MatMul f4 [10, 64]
00000000: 3098 a33d e25c edbe 7a08 dfbd d2f1 92be
00000010: 672a ef3e 5284 21be c6c2 403e 6f22 be3c
00000020: 5d82 62bc 0367 5ebe 4769 333e 4a96 d9be
00000030: 335c 28be 8daa 453d c015 92be 2da1 503d
00000040: cfb4 783e e239 023e 60f1 2cbe dcca 55bd
00000050: c59d debe 197f 9cbd 03a9 f4bd 84d0 96be
00000060: 2a38 f2bd 3e54 3e3e 55a4 25be b8d2 80be
00000070: 2cb4 4bbe f726 9b3e 7bac 19be b458 10be
00000080: fd33 6abe 48e0 0a3d 7533 143d 6ffb d9bd
00000090: 0eba 913e 9793 363f e59f c03d e130 103e
000000a0: 1d18 d53e 3b9a 85be 435b 1c3e 2df6 11be
000000b0: 81ea 84bc 1c89 853e 3a60 88be 34aa 0f3e
000000c0: cfaa d6be 948e dd3d 68b0 923d 5513 81bd
000000d0: f954 2a3e 2f55 a13e 9167 4eba 5c58 a6be
000000e0: 240d 45bd 3bcb 41be 035f d9be 3986 60be
000000f0: 96b9 78be d6d9 c4bd 7556 243e d135 79be
00000100: 9c31 0ebf c175 06be 3334 df3c 3044 2cbe
00000110: 0fd1 68be b302 673e c92f 523e baca a2be
00000120: 4acb 8dbd 069b 513d 8bb3 813e badf 0dbe
00000130: 8685 6fbc 63ec 83be 7f9f 8dbe 9770 753d
00000140: 9b6b 023e 92ca 013e 3647 ebbe 9c20 363e
00000150: 1a4a aa3e 2cd5 c13e 3f42 2dbc 9151 42be
00000160: ad20 c53e 82e4 d1be 92c0 9f3e ec66 eebe
00000170: 3fca 583d 7469 36be be77 61be fafe 493d
00000180: cf6b d0be d230 bf3e 58dd f63c 84b5 b4bd
00000190: 53f7 9d3d 70c0 82be 08ae 0fbd 8ad4 a9bc
000001a0: 2e04 e2be 153a 6ebe 25a4 883b ab66 78bd
000001b0: b6ee 06bf 1ccf 143e e826 55be 3ac3 b13d
000001c0: 0b86 8f3c e959 e83e f9e2 2bbd ae2e 7d3e
000001d0: 23e4 0cbe 8c8d a93e 53d0 33be 9e13 8a3c
000001e0: 7243 353e aa9a 113d 2a21 d5bc 3cf3 08be
000001f0: 00ce 6d3c d4a5 ffbd 4a75 533e ebd3 0fbe
00000200: 3df6 923e 0d7c e53d 725d 253e 08ff 0b3e
00000210: 971f 5fbe 4111 cdbd d4e7 df3d 24b9 debc
00000220: 062d 0ebe 24aa ce3d 5893 363e 5387 4bbb
00000230: 57d0 5fbe 16e0 a0bc cab7 8f3e 3297 de3d
00000240: cab2 b3bd 8787 cf3d cb39 94be ddc5 3d3c
00000250: 1369 523e fc37 5e3e 653a af3d 8072 dc3c
00000260: 442b afbe 57f9 5b3d cc08 b5bd e2bb e3bc
00000270: 9c59 61be 2208 5cbe e00b 6cbe c57e 29be
00000280: 924f 293e 162a b8be 711c 9abd dbd9 46be
00000290: b057 83bc ed59 813e db4f 863e 774d 5b3e
000002a0: e436 6bbd 6e2d 1abf 05e0 10be 748e e2bd
000002b0: f553 203e a65f 563d 6cdd 0c3d 46eb 78bd
000002c0: f34d c0be 330f 64be 6b44 a53d d072 9dbe
000002d0: 4741 c13e c7ea 3bbd db0f de3d 4b5f 8cbe
000002e0: 563e 38be c271 99bd b746 6d3c d17f 38bd
000002f0: a327 63be 67c5 1fbe dbd3 e53d 3af8 f5be
00000300: 2705 493c a45e 70be 7320 27be 9b88 fd3b
00000310: d4b2 58be 7701 dbbd 0369 27be a0f8 e63d
00000320: 056b a2be d809 98bc d61a 373e ce33 a43e
00000330: a1d6 4ebe fe7b aebd 044c 05ba 1dec 0bbe
00000340: 82d9 89be 4094 d43d 4018 433e 66b8 053d
00000350: ffbf 9abe aabd 923e 714d 16be 2f06 2ebe
00000360: 46ee 753e cb3f 353e 0cbe c2be c3ff 26be
00000370: 59c8 a73d 759c 85be c415 3abd dfc5 0e3d
00000380: 3828 b33d c7b6 463e d8eb a5bc c2cf f7be
00000390: 30aa 473e 7630 8abe c0fb 8ebe 00da 1ebe
000003a0: bfa0 57bd 439a 823a 34fa 3cbe 4c0f 673c
000003b0: 5d42 733e 5d78 86be c28f 913d 392e 853e
000003c0: 581d 3ebe d331 19bd 7e42 80be d734 6e3e
000003d0: 2218 44be e29d 69bd 78fa 313e 00a8 eebc
000003e0: 1526 edbd bbf6 0d3e 9dbc 5fbe 8c55 9c3c
000003f0: d93a 82be 134b e73c b49e ca3d 4860 92be
0.07988012 -0.46359926 -0.10890289 -0.2870012 0.46712038 -0.15773132 0.188243 0.023209779
-0.013825026 -0.21718983 0.17520629 -0.42497474 -0.16441421 0.048258353 -0.2853222 0.05093496
0.24287723 0.12717393 -0.16888952 -0.052195415 -0.43479744 -0.076414295 -0.11946299 -0.2945596
-0.11827119 0.18586823 -0.16175969 -0.25160766 -0.19892949 0.30303165 -0.15007202 -0.14096338
-0.22871394 0.033905298 0.036181886 -0.1064366 0.2846226 0.71318954 0.094054975 0.14081146
0.4161996 -0.2609423 0.15269189 -0.14254065 -0.016225101 0.2608117 -0.26635915 0.14029771
-0.41927192 0.1081821 0.07162553 -0.063025154 0.16633977 0.31510302 -0.0007873709 -0.32489288
-0.048108235 -0.18925183 -0.424553 -0.21926202 -0.24289545 -0.096118614 0.16048606 -0.24336936
-0.5554445 -0.13130857 0.02724657 -0.16822886 -0.22736 0.22559623 0.20526041 -0.31795293
-0.0692354 0.051173232 0.25332293 -0.13854876 -0.014619237 -0.25766286 -0.27660748 0.059921827
0.1273636 0.1267493 -0.45952767 0.17785877 0.3325966 0.3785795 -0.010574876 -0.18976428
0.38501492 -0.4099465 0.31201607 -0.46562898 0.052927252 -0.17813665 -0.22018334 0.04931543
-0.4070725 0.37341934 0.030134842 -0.08823684 0.07713189 -0.25537443 -0.03507808 -0.02073123
-0.44143814 -0.23264344 0.004169958 -0.060644787 -0.52707994 0.14532131 -0.20815623 0.08679815
0.017519971 0.45381096 -0.041964505 0.24724838 -0.13758902 0.33115804 -0.17559938 0.016855057
0.1770151 0.03554789 -0.02601679 -0.13374037 0.014514446 -0.12482801 0.20650211 -0.14045684
0.2870349 0.112053014 0.16148928 0.13671505 -0.21789394 -0.100130565 0.109328896 -0.027187891
-0.13884363 0.100910455 0.17829645 -0.0031056001 -0.21856819 -0.019638103 0.28069907 0.10868682
-0.08774336 0.10133272 -0.28950343 0.011582819 0.20547895 0.21701044 0.0855606 0.026910067
-0.34212697 0.053704586 -0.088395685 -0.02779955 -0.2200684 -0.21487477 -0.23051405 -0.16552265
0.1653426 -0.3596961 -0.07524956 -0.19419043 -0.016033024 0.2526392 0.262328 0.21416269
-0.057425395 -0.6022557 -0.14147957 -0.11062327 0.15657027 0.05233731 0.03439085 -0.06077125
-0.3755947 -0.22271423 0.0806969 -0.30751657 0.37745115 -0.045878198 0.10842868 -0.27416453
-0.1799253 -0.07492401 0.014482192 -0.04504377 -0.22183089 -0.15602647 0.11222049 -0.48040944
0.012269295 -0.23473603 -0.16320972 0.007737232 -0.21161968 -0.10693639 -0.16348653 0.1127789
-0.31722274 -0.018559381 0.17881331 0.32070774 -0.20199062 -0.085197434 -0.00050848746 -0.13664289
-0.26923758 0.10379839 0.1905222 0.03264656 -0.30224606 0.28660327 -0.14677979 -0.16994546
0.24016675 0.17700116 -0.3803562 -0.16308503 0.0819251 -0.2609593 -0.045430914 0.034856673
0.087479055 0.19405662 -0.02025406 -0.48400694 0.19498515 -0.26990098 -0.27926445 -0.15512848
-0.052643534 0.0009964186 -0.1845482 0.014102768 0.23755784 -0.26263705 0.07107498 0.26011828
-0.18565881 -0.03740103 -0.2505073 0.23262344 -0.19149831 -0.057035334 0.17380702 -0.029132843
-0.11579529 0.13863651 -0.21849294 0.01908376 -0.25435522 0.02823404 0.098935515 -0.28589082
